pytorch version: 2.9.0+cu128
numpy version: 2.3.4
pandas version: 2.3.3
matplotlib version: 3.10.7
pillow version: 12.0.0
--------------------------------------------------
CUDA Is Available : True
--------------------------------------------------
Original size: 10000, Filtered size: 9040
ClassifierV5(
  (ff): Sequential(
    (0): Conv2d(1, 32, kernel_size=(3, 3), stride=(1, 1), padding=(1, 1))
    (1): BatchNorm2d(32, eps=1e-05, momentum=0.1, affine=True, track_running_stats=True)
    (2): ReLU()
    (3): MaxPool2d(kernel_size=2, stride=2, padding=0, dilation=1, ceil_mode=False)
    (4): Conv2d(32, 64, kernel_size=(3, 3), stride=(1, 1), padding=(1, 1))
    (5): BatchNorm2d(64, eps=1e-05, momentum=0.1, affine=True, track_running_stats=True)
    (6): ReLU()
    (7): MaxPool2d(kernel_size=2, stride=2, padding=0, dilation=1, ceil_mode=False)
    (8): Conv2d(64, 128, kernel_size=(3, 3), stride=(1, 1), padding=(1, 1))
    (9): BatchNorm2d(128, eps=1e-05, momentum=0.1, affine=True, track_running_stats=True)
    (10): ReLU()
    (11): MaxPool2d(kernel_size=2, stride=2, padding=0, dilation=1, ceil_mode=False)
    (12): Flatten(start_dim=1, end_dim=-1)
    (13): Linear(in_features=16384, out_features=4096, bias=True)
    (14): BatchNorm1d(4096, eps=1e-05, momentum=0.1, affine=True, track_running_stats=True)
    (15): ReLU()
    (16): Linear(in_features=4096, out_features=2048, bias=True)
    (17): BatchNorm1d(2048, eps=1e-05, momentum=0.1, affine=True, track_running_stats=True)
    (18): ReLU()
    (19): Dropout(p=0.5, inplace=False)
    (20): Linear(in_features=2048, out_features=1024, bias=True)
    (21): BatchNorm1d(1024, eps=1e-05, momentum=0.1, affine=True, track_running_stats=True)
    (22): ReLU()
    (23): Dropout(p=0.5, inplace=False)
    (24): Linear(in_features=1024, out_features=120, bias=True)
  )
)
--------------------------------------------------
starting training!
--------------------------------------------------
Batch Size: 64
Learning Rate: 0.0003
Epochs: 50
Split : [0.8, 0.2]
--------------------------------------------------
making model registry at /home/suriyaa/dev/havoc/model_registry
making onnx registry at /home/suriyaa/dev/havoc/onnx_registry
…
